…
I0220 17:37:42.821501 23779 net.cpp:313] The NetState phase (0) differed from the phase (1) specified by a rule in layer data
I0220 17:37:42.821519 23779 net.cpp:313] The NetState phase (0) differed from the phase (1) specified by a rule in layer accuracy
I0220 17:37:42.821655 23779 net.cpp:49] Initializing net from parameters: 
name: "ucf101net"
state {
  phase: TRAIN
}
layer {
  name: "data"
  type: "Data"
  top: "data"
  top: "label"
  include {
    phase: TRAIN
  }
  transform_param {
    mirror: false
  }
  data_param {
    source: "/home/nfd/myproject/mycviupaper/ucf101_train_1_lmdb"
    batch_size: 25
    backend: LMDB
  }
}
layer {
  name: "conv1"
  type: "Convolution"
  bottom: "data"
  top: "conv1"
  param {
    lr_mult: 1
    decay_mult: 1
  }
  param {
    lr_mult: 2
    decay_mult: 0
  }
  convolution_param {
    num_output: 96
    stride: 1
    weight_filler {
      type: "gaussian"
      std: 0.01
    }
    bias_filler {
      type: "constant"
      value: 0
    }
    kernel_h: 5
    kernel_w: 3
  }
}
layer {
  name: "relu1"
  type: "ReLU"
  bottom: "conv1"
  top: "conv1"
}
layer {
  name: "pool1"
  type: "Pooling"
  bottom: "conv1"
  top: "pool1"
  pooling_param {
    pool: MAX
    kernel_size: 3
    stride: 2
    pad: 2
  }
}
layer {
  name: "conv2"
  type: "Convolution"
  bottom: "pool1"
  top: "conv2"
  param {
    lr_mult: 1
    decay_mult: 1
  }
  param {
    lr_mult: 2
    decay_mult: 0
  }
  convolution_param {
    num_output: 192
    stride: 1
    weight_filler {
      type: "gaussian"
      std: 0.01
    }
    bias_filler {
      type: "constant"
      value: 0
    }
    kernel_h: 5
    kernel_w: 3
  }
}
layer {
  name: "relu2"
  type: "ReLU"
  bottom: "conv2"
  top: "conv2"
}
layer {
  name: "pool2"
  type: "Pooling"
  bottom: "conv2"
  top: "pool2"
  pooling_param {
    pool: MAX
    kernel_size: 3
    stride: 2
    pad: 2
  }
}
layer {
  name: "conv3"
  type: "Convolution"
  bottom: "pool2"
  top: "conv3"
  param {
    lr_mult: 1
    decay_mult: 1
  }
  param {
    lr_mult: 2
    decay_mult: 0
  }
  convolution_param {
    num_output: 384
    stride: 1
    weight_filler {
      type: "gaussian"
      std: 0.01
    }
    bias_filler {
      type: "constant"
      value: 0
    }
    kernel_h: 5
    kernel_w: 3
  }
}
layer {
  name: "relu3"
  type: "ReLU"
  bottom: "conv3"
  top: "conv3"
}
layer {
  name: "conv4"
  type: "Convolution"
  bottom: "conv3"
  top: "conv4"
  param {
    lr_mult: 1
    decay_mult: 1
  }
  param {
    lr_mult: 2
    decay_mult: 0
  }
  convolution_param {
    num_output: 384
    stride: 1
    weight_filler {
      type: "gaussian"
      std: 0.01
    }
    bias_filler {
      type: "constant"
      value: 0
    }
    kernel_h: 5
    kernel_w: 3
  }
}
layer {
  name: "relu4"
  type: "ReLU"
  bottom: "conv4"
  top: "conv4"
}
layer {
  name: "conv5"
  type: "Convolution"
  bottom: "conv4"
  top: "conv5"
  param {
    lr_mult: 1
    decay_mult: 1
  }
  param {
    lr_mult: 2
    decay_mult: 0
  }
  convolution_param {
    num_output: 256
    stride: 1
    weight_filler {
      type: "gaussian"
      std: 0.01
    }
    bias_filler {
      type: "constant"
      value: 0
    }
    kernel_h: 5
    kernel_w: 3
  }
}
layer {
  name: "relu5"
  type: "ReLU"
  bottom: "conv5"
  top: "conv5"
}
layer {
  name: "pool5"
  type: "Pooling"
  bottom: "conv5"
  top: "pool5"
  pooling_param {
    pool: MAX
    kernel_size: 3
    stride: 2
    pad: 2
  }
}
layer {
  name: "fc6"
  type: "InnerProduct"
  bottom: "pool5"
  top: "fc6"
  param {
    lr_mult: 1
    decay_mult: 1
  }
  param {
    lr_mult: 2
    decay_mult: 0
  }
  inner_product_param {
    num_output: 512
    weight_filler {
      type: "gaussian"
      std: 0.005
    }
    bias_filler {
      type: "constant"
      value: 1
    }
  }
}
layer {
  name: "relu6"
  type: "ReLU"
  bottom: "fc6"
  top: "fc6"
}
layer {
  name: "drop6"
  type: "Dropout"
  bottom: "fc6"
  top: "fc6"
  dropout_param {
    dropout_ratio: 0.5
  }
}
layer {
  name: "fc7"
  type: "InnerProduct"
  bottom: "fc6"
  top: "fc7"
  param {
    lr_mult: 1
    decay_mult: 1
  }
  param {
    lr_mult: 2
    decay_mult: 0
  }
  inner_product_param {
    num_output: 512
    weight_filler {
      type: "gaussian"
      std: 0.005
    }
    bias_filler {
      type: "constant"
      value: 1
    }
  }
}
layer {
  name: "relu7"
  type: "ReLU"
  bottom: "fc7"
  top: "fc7"
}
layer {
  name: "drop7"
  type: "Dropout"
  bottom: "fc7"
  top: "fc7"
  dropout_param {
    dropout_ratio: 0.5
  }
}
layer {
  name: "fc8"
  type: "InnerProduct"
  bottom: "fc7"
  top: "fc8"
  param {
    lr_mult: 1
    decay_mult: 1
  }
  param {
    lr_mult: 2
    decay_mult: 0
  }
  inner_product_param {
    num_output: 101
    weight_filler {
      type: "gaussian"
      std: 0.01
    }
    bias_filler {
      type: "constant"
      value: 0
    }
  }
}
layer {
  name: "loss"
  type: "HingeLoss"
  bottom: "fc8"
  bottom: "label"
  top: "loss"
  hinge_loss_param {
    norm: L2
  }
}
I0220 17:37:42.821750 23779 layer_factory.hpp:77] Creating layer data
I0220 17:37:42.822196 23779 net.cpp:91] Creating Layer data
I0220 17:37:42.822217 23779 net.cpp:399] data -> data
I0220 17:37:42.822271 23779 net.cpp:399] data -> label
I0220 17:37:42.822881 23783 db_lmdb.cpp:52] Opened lmdb /home/nfd/myproject/mycviupaper/ucf101_train_1_lmdb
I0220 17:37:42.835639 23779 net.cpp:141] Setting up data
I0220 17:37:42.835687 23779 layer_factory.hpp:77] Creating layer conv1
I0220 17:37:42.835708 23779 net.cpp:91] Creating Layer conv1
I0220 17:37:42.835716 23779 net.cpp:425] conv1 <- data
I0220 17:37:42.835726 23779 net.cpp:399] conv1 -> conv1
I0220 17:37:42.963835 23779 net.cpp:141] Setting up conv1
I0220 17:37:42.963872 23779 net.cpp:148] Top shape: 25 96 2044 23 (112828800)
I0220 17:37:42.963876 23779 net.cpp:156] Memory required for data: 456435300
I0220 17:37:42.963892 23779 layer_factory.hpp:77] Creating layer relu1
I0220 17:37:42.963902 23779 net.cpp:91] Creating Layer relu1
I0220 17:37:42.963908 23779 net.cpp:425] relu1 <- conv1
I0220 17:37:42.963913 23779 net.cpp:386] relu1 -> conv1 (in-place)
I0220 17:37:42.964041 23779 net.cpp:141] Setting up relu1
I0220 17:37:42.964049 23779 net.cpp:148] Top shape: 25 96 2044 23 (112828800)
I0220 17:37:42.964052 23779 net.cpp:156] Memory required for data: 907750500
I0220 17:37:42.964056 23779 layer_factory.hpp:77] Creating layer pool1
I0220 17:37:42.964072 23779 net.cpp:91] Creating Layer pool1
I0220 17:37:42.964076 23779 net.cpp:425] pool1 <- conv1
I0220 17:37:42.964081 23779 net.cpp:399] pool1 -> pool1
I0220 17:37:42.964114 23779 net.cpp:141] Setting up pool1
I0220 17:37:42.964130 23779 net.cpp:148] Top shape: 25 96 1023 13 (31917600)
I0220 17:37:42.964133 23779 net.cpp:156] Memory required for data: 1035420900
I0220 17:37:42.964135 23779 layer_factory.hpp:77] Creating layer conv2
I0220 17:37:42.964155 23779 net.cpp:91] Creating Layer conv2
I0220 17:37:42.964159 23779 net.cpp:425] conv2 <- pool1
I0220 17:37:42.964164 23779 net.cpp:399] conv2 -> conv2
I0220 17:37:42.971287 23779 net.cpp:141] Setting up conv2
I0220 17:37:42.971298 23779 net.cpp:148] Top shape: 25 192 1019 11 (53803200)
I0220 17:37:42.971302 23779 net.cpp:156] Memory required for data: 1250633700
I0220 17:37:42.971320 23779 layer_factory.hpp:77] Creating layer relu2
I0220 17:37:42.971338 23779 net.cpp:91] Creating Layer relu2
I0220 17:37:42.971341 23779 net.cpp:425] relu2 <- conv2
I0220 17:37:42.971346 23779 net.cpp:386] relu2 -> conv2 (in-place)
I0220 17:37:42.971544 23779 net.cpp:141] Setting up relu2
I0220 17:37:42.971552 23779 net.cpp:148] Top shape: 25 192 1019 11 (53803200)
I0220 17:37:42.971566 23779 net.cpp:156] Memory required for data: 1465846500
I0220 17:37:42.971570 23779 layer_factory.hpp:77] Creating layer pool2
I0220 17:37:42.971575 23779 net.cpp:91] Creating Layer pool2
I0220 17:37:42.971577 23779 net.cpp:425] pool2 <- conv2
I0220 17:37:42.971582 23779 net.cpp:399] pool2 -> pool2
I0220 17:37:42.971623 23779 net.cpp:141] Setting up pool2
I0220 17:37:42.971629 23779 net.cpp:148] Top shape: 25 192 511 7 (17169600)
I0220 17:37:42.971633 23779 net.cpp:156] Memory required for data: 1534524900
I0220 17:37:42.971637 23779 layer_factory.hpp:77] Creating layer conv3
I0220 17:37:42.971643 23779 net.cpp:91] Creating Layer conv3
I0220 17:37:42.971659 23779 net.cpp:425] conv3 <- pool2
I0220 17:37:42.971663 23779 net.cpp:399] conv3 -> conv3
I0220 17:37:42.996876 23779 net.cpp:141] Setting up conv3
I0220 17:37:42.996892 23779 net.cpp:148] Top shape: 25 384 507 5 (24336000)
I0220 17:37:42.996896 23779 net.cpp:156] Memory required for data: 1631868900
I0220 17:37:42.996906 23779 layer_factory.hpp:77] Creating layer relu3
I0220 17:37:42.996924 23779 net.cpp:91] Creating Layer relu3
I0220 17:37:42.996928 23779 net.cpp:425] relu3 <- conv3
I0220 17:37:42.996933 23779 net.cpp:386] relu3 -> conv3 (in-place)
I0220 17:37:42.997145 23779 net.cpp:141] Setting up relu3
I0220 17:37:42.997155 23779 net.cpp:148] Top shape: 25 384 507 5 (24336000)
I0220 17:37:42.997169 23779 net.cpp:156] Memory required for data: 1729212900
I0220 17:37:42.997171 23779 layer_factory.hpp:77] Creating layer conv4
I0220 17:37:42.997180 23779 net.cpp:91] Creating Layer conv4
I0220 17:37:42.997184 23779 net.cpp:425] conv4 <- conv3
I0220 17:37:42.997200 23779 net.cpp:399] conv4 -> conv4
I0220 17:37:43.046739 23779 net.cpp:141] Setting up conv4
I0220 17:37:43.046762 23779 net.cpp:148] Top shape: 25 384 503 3 (14486400)
I0220 17:37:43.046766 23779 net.cpp:156] Memory required for data: 1787158500
I0220 17:37:43.046774 23779 layer_factory.hpp:77] Creating layer relu4
I0220 17:37:43.046793 23779 net.cpp:91] Creating Layer relu4
I0220 17:37:43.046797 23779 net.cpp:425] relu4 <- conv4
I0220 17:37:43.046813 23779 net.cpp:386] relu4 -> conv4 (in-place)
I0220 17:37:43.046943 23779 net.cpp:141] Setting up relu4
I0220 17:37:43.046952 23779 net.cpp:148] Top shape: 25 384 503 3 (14486400)
I0220 17:37:43.046964 23779 net.cpp:156] Memory required for data: 1845104100
I0220 17:37:43.046967 23779 layer_factory.hpp:77] Creating layer conv5
I0220 17:37:43.046975 23779 net.cpp:91] Creating Layer conv5
I0220 17:37:43.046978 23779 net.cpp:425] conv5 <- conv4
I0220 17:37:43.046985 23779 net.cpp:399] conv5 -> conv5
I0220 17:37:43.080121 23779 net.cpp:141] Setting up conv5
I0220 17:37:43.080139 23779 net.cpp:148] Top shape: 25 256 499 1 (3193600)
I0220 17:37:43.080143 23779 net.cpp:156] Memory required for data: 1857878500
I0220 17:37:43.080152 23779 layer_factory.hpp:77] Creating layer relu5
I0220 17:37:43.080170 23779 net.cpp:91] Creating Layer relu5
I0220 17:37:43.080175 23779 net.cpp:425] relu5 <- conv5
I0220 17:37:43.080180 23779 net.cpp:386] relu5 -> conv5 (in-place)
I0220 17:37:43.080375 23779 net.cpp:141] Setting up relu5
I0220 17:37:43.080385 23779 net.cpp:148] Top shape: 25 256 499 1 (3193600)
I0220 17:37:43.080389 23779 net.cpp:156] Memory required for data: 1870652900
I0220 17:37:43.080404 23779 layer_factory.hpp:77] Creating layer pool5
I0220 17:37:43.080410 23779 net.cpp:91] Creating Layer pool5
I0220 17:37:43.080423 23779 net.cpp:425] pool5 <- conv5
I0220 17:37:43.080428 23779 net.cpp:399] pool5 -> pool5
I0220 17:37:43.080458 23779 net.cpp:141] Setting up pool5
I0220 17:37:43.080473 23779 net.cpp:148] Top shape: 25 256 251 2 (3212800)
I0220 17:37:43.080476 23779 net.cpp:156] Memory required for data: 1883504100
I0220 17:37:43.080478 23779 layer_factory.hpp:77] Creating layer fc6
I0220 17:37:43.080523 23779 net.cpp:91] Creating Layer fc6
I0220 17:37:43.080538 23779 net.cpp:425] fc6 <- pool5
I0220 17:37:43.080543 23779 net.cpp:399] fc6 -> fc6
I0220 17:37:44.533653 23779 net.cpp:141] Setting up fc6
I0220 17:37:44.533679 23779 net.cpp:148] Top shape: 25 512 (12800)
I0220 17:37:44.533684 23779 net.cpp:156] Memory required for data: 1883555300
I0220 17:37:44.533690 23779 layer_factory.hpp:77] Creating layer relu6
I0220 17:37:44.533699 23779 net.cpp:91] Creating Layer relu6
I0220 17:37:44.533702 23779 net.cpp:425] relu6 <- fc6
I0220 17:37:44.533709 23779 net.cpp:386] relu6 -> fc6 (in-place)
I0220 17:37:44.533877 23779 net.cpp:141] Setting up relu6
I0220 17:37:44.533885 23779 net.cpp:148] Top shape: 25 512 (12800)
I0220 17:37:44.533888 23779 net.cpp:156] Memory required for data: 1883606500
I0220 17:37:44.533891 23779 layer_factory.hpp:77] Creating layer drop6
I0220 17:37:44.533900 23779 net.cpp:91] Creating Layer drop6
I0220 17:37:44.533903 23779 net.cpp:425] drop6 <- fc6
I0220 17:37:44.533908 23779 net.cpp:386] drop6 -> fc6 (in-place)
I0220 17:37:44.533949 23779 net.cpp:141] Setting up drop6
I0220 17:37:44.533956 23779 net.cpp:148] Top shape: 25 512 (12800)
I0220 17:37:44.533958 23779 net.cpp:156] Memory required for data: 1883657700
I0220 17:37:44.533972 23779 layer_factory.hpp:77] Creating layer fc7
I0220 17:37:44.533977 23779 net.cpp:91] Creating Layer fc7
I0220 17:37:44.533980 23779 net.cpp:425] fc7 <- fc6
I0220 17:37:44.533984 23779 net.cpp:399] fc7 -> fc7
I0220 17:37:44.539959 23779 net.cpp:141] Setting up fc7
I0220 17:37:44.539969 23779 net.cpp:148] Top shape: 25 512 (12800)
I0220 17:37:44.539973 23779 net.cpp:156] Memory required for data: 1883708900
I0220 17:37:44.539978 23779 layer_factory.hpp:77] Creating layer relu7
I0220 17:37:44.539983 23779 net.cpp:91] Creating Layer relu7
I0220 17:37:44.539986 23779 net.cpp:425] relu7 <- fc7
I0220 17:37:44.539990 23779 net.cpp:386] relu7 -> fc7 (in-place)
I0220 17:37:44.540233 23779 net.cpp:141] Setting up relu7
I0220 17:37:44.540242 23779 net.cpp:148] Top shape: 25 512 (12800)
I0220 17:37:44.540246 23779 net.cpp:156] Memory required for data: 1883760100
I0220 17:37:44.540248 23779 layer_factory.hpp:77] Creating layer drop7
I0220 17:37:44.540253 23779 net.cpp:91] Creating Layer drop7
I0220 17:37:44.540256 23779 net.cpp:425] drop7 <- fc7
I0220 17:37:44.540261 23779 net.cpp:386] drop7 -> fc7 (in-place)
I0220 17:37:44.540289 23779 net.cpp:141] Setting up drop7
I0220 17:37:44.540304 23779 net.cpp:148] Top shape: 25 512 (12800)
I0220 17:37:44.540307 23779 net.cpp:156] Memory required for data: 1883811300
I0220 17:37:44.540309 23779 layer_factory.hpp:77] Creating layer fc8
I0220 17:37:44.540325 23779 net.cpp:91] Creating Layer fc8
I0220 17:37:44.540328 23779 net.cpp:425] fc8 <- fc7
I0220 17:37:44.540333 23779 net.cpp:399] fc8 -> fc8
I0220 17:37:44.541544 23779 net.cpp:141] Setting up fc8
I0220 17:37:44.541551 23779 net.cpp:148] Top shape: 25 101 (2525)
I0220 17:37:44.541554 23779 net.cpp:156] Memory required for data: 1883821400
I0220 17:37:44.541558 23779 layer_factory.hpp:77] Creating layer loss
I0220 17:37:44.542450 23779 net.cpp:91] Creating Layer loss
I0220 17:37:44.542461 23779 net.cpp:425] loss <- fc8
I0220 17:37:44.542466 23779 net.cpp:425] loss <- label
I0220 17:37:44.542472 23779 net.cpp:399] loss -> loss
I0220 17:37:44.542503 23779 net.cpp:141] Setting up loss
…
I0220 17:37:44.543159 23779 solver.cpp:181] Creating test net (#0) specified by net file: /home/nfd/myproject/mycviupaper/train_val.prototxt
I0220 17:37:44.543197 23779 net.cpp:313] The NetState phase (1) differed from the phase (0) specified by a rule in layer data
I0220 17:37:44.543330 23779 net.cpp:49] Initializing net from parameters: 
name: "ucf101net"
state {
  phase: TEST
}
layer {
  name: "data"
  type: "Data"
  top: "data"
  top: "label"
  include {
    phase: TEST
  }
  transform_param {
    mirror: false
  }
  data_param {
    source: "/home/nfd/myproject/mycviupaper/ucf101_test_1_lmdb"
    batch_size: 13
    backend: LMDB
  }
}
layer {
  name: "conv1"
  type: "Convolution"
  bottom: "data"
  top: "conv1"
  param {
    lr_mult: 1
    decay_mult: 1
  }
  param {
    lr_mult: 2
    decay_mult: 0
  }
  convolution_param {
    num_output: 96
    stride: 1
    weight_filler {
      type: "gaussian"
      std: 0.01
    }
    bias_filler {
      type: "constant"
      value: 0
    }
    kernel_h: 5
    kernel_w: 3
  }
}
layer {
  name: "relu1"
  type: "ReLU"
  bottom: "conv1"
  top: "conv1"
}
layer {
  name: "pool1"
  type: "Pooling"
  bottom: "conv1"
  top: "pool1"
  pooling_param {
    pool: MAX
    kernel_size: 3
    stride: 2
    pad: 2
  }
}
layer {
  name: "conv2"
  type: "Convolution"
  bottom: "pool1"
  top: "conv2"
  param {
    lr_mult: 1
    decay_mult: 1
  }
  param {
    lr_mult: 2
    decay_mult: 0
  }
  convolution_param {
    num_output: 192
    stride: 1
    weight_filler {
      type: "gaussian"
      std: 0.01
    }
    bias_filler {
      type: "constant"
      value: 0
    }
    kernel_h: 5
    kernel_w: 3
  }
}
layer {
  name: "relu2"
  type: "ReLU"
  bottom: "conv2"
  top: "conv2"
}
layer {
  name: "pool2"
  type: "Pooling"
  bottom: "conv2"
  top: "pool2"
  pooling_param {
    pool: MAX
    kernel_size: 3
    stride: 2
    pad: 2
  }
}
layer {
  name: "conv3"
  type: "Convolution"
  bottom: "pool2"
  top: "conv3"
  param {
    lr_mult: 1
    decay_mult: 1
  }
  param {
    lr_mult: 2
    decay_mult: 0
  }
  convolution_param {
    num_output: 384
    stride: 1
    weight_filler {
      type: "gaussian"
      std: 0.01
    }
    bias_filler {
      type: "constant"
      value: 0
    }
    kernel_h: 5
    kernel_w: 3
  }
}
layer {
  name: "relu3"
  type: "ReLU"
  bottom: "conv3"
  top: "conv3"
}
layer {
  name: "conv4"
  type: "Convolution"
  bottom: "conv3"
  top: "conv4"
  param {
    lr_mult: 1
    decay_mult: 1
  }
  param {
    lr_mult: 2
    decay_mult: 0
  }
  convolution_param {
    num_output: 384
    stride: 1
    weight_filler {
      type: "gaussian"
      std: 0.01
    }
    bias_filler {
      type: "constant"
      value: 0
    }
    kernel_h: 5
    kernel_w: 3
  }
}
layer {
  name: "relu4"
  type: "ReLU"
  bottom: "conv4"
  top: "conv4"
}
layer {
  name: "conv5"
  type: "Convolution"
  bottom: "conv4"
  top: "conv5"
  param {
    lr_mult: 1
    decay_mult: 1
  }
  param {
    lr_mult: 2
    decay_mult: 0
  }
  convolution_param {
    num_output: 256
    stride: 1
    weight_filler {
      type: "gaussian"
      std: 0.01
    }
    bias_filler {
      type: "constant"
      value: 0
    }
    kernel_h: 5
    kernel_w: 3
  }
}
layer {
  name: "relu5"
  type: "ReLU"
  bottom: "conv5"
  top: "conv5"
}
layer {
  name: "pool5"
  type: "Pooling"
  bottom: "conv5"
  top: "pool5"
  pooling_param {
    pool: MAX
    kernel_size: 3
    stride: 2
    pad: 2
  }
}
layer {
  name: "fc6"
  type: "InnerProduct"
  bottom: "pool5"
  top: "fc6"
  param {
    lr_mult: 1
    decay_mult: 1
  }
  param {
    lr_mult: 2
    decay_mult: 0
  }
  inner_product_param {
    num_output: 512
    weight_filler {
      type: "gaussian"
      std: 0.005
    }
    bias_filler {
      type: "constant"
      value: 1
    }
  }
}
layer {
  name: "relu6"
  type: "ReLU"
  bottom: "fc6"
  top: "fc6"
}
layer {
  name: "drop6"
  type: "Dropout"
  bottom: "fc6"
  top: "fc6"
  dropout_param {
    dropout_ratio: 0.5
  }
}
layer {
  name: "fc7"
  type: "InnerProduct"
  bottom: "fc6"
  top: "fc7"
  param {
    lr_mult: 1
    decay_mult: 1
  }
  param {
    lr_mult: 2
    decay_mult: 0
  }
  inner_product_param {
    num_output: 512
    weight_filler {
      type: "gaussian"
      std: 0.005
    }
    bias_filler {
      type: "constant"
      value: 1
    }
  }
}
layer {
  name: "relu7"
  type: "ReLU"
  bottom: "fc7"
  top: "fc7"
}
layer {
  name: "drop7"
  type: "Dropout"
  bottom: "fc7"
  top: "fc7"
  dropout_param {
    dropout_ratio: 0.5
  }
}
layer {
  name: "fc8"
  type: "InnerProduct"
  bottom: "fc7"
  top: "fc8"
  param {
    lr_mult: 1
    decay_mult: 1
  }
  param {
    lr_mult: 2
    decay_mult: 0
  }
  inner_product_param {
    num_output: 101
    weight_filler {
      type: "gaussian"
      std: 0.01
    }
    bias_filler {
      type: "constant"
      value: 0
    }
  }
}
layer {
  name: "accuracy"
  type: "Accuracy"
  bottom: "fc8"
  bottom: "label"
  top: "accuracy"
  include {
    phase: TEST
  }
}
layer {
  name: "loss"
  type: "HingeLoss"
  bottom: "fc8"
  bottom: "label"
  top: "loss"
  hinge_loss_param {
    norm: L2
  }
}
I0220 17:37:44.543428 23779 layer_factory.hpp:77] Creating layer data
I0220 17:37:44.543484 23779 net.cpp:91] Creating Layer data
I0220 17:37:44.543493 23779 net.cpp:399] data -> data
I0220 17:37:44.543501 23779 net.cpp:399] data -> label
I0220 17:37:44.544121 23785 db_lmdb.cpp:52] Opened lmdb /home/nfd/myproject/mycviupaper/ucf101_test_1_lmdb
I0220 17:37:44.547881 23779 layer_factory.hpp:77] Creating layer label_data_1_split
I0220 17:37:44.547894 23779 net.cpp:91] Creating Layer label_data_1_split
I0220 17:37:44.547899 23779 net.cpp:425] label_data_1_split <- label
I0220 17:37:44.547915 23779 net.cpp:399] label_data_1_split -> label_data_1_split_0
I0220 17:37:44.547924 23779 net.cpp:399] label_data_1_split -> label_data_1_split_1
I0220 17:37:44.547981 23779 net.cpp:141] Setting up label_data_1_split
I0220 17:37:44.547989 23779 net.cpp:148] Top shape: 13 (13)
I0220 17:37:44.548003 23779 net.cpp:148] Top shape: 13 (13)
I0220 17:37:44.548007 23779 net.cpp:156] Memory required for data: 2662556
I0220 17:37:44.548009 23779 layer_factory.hpp:77] Creating layer conv1
I0220 17:37:44.548019 23779 net.cpp:91] Creating Layer conv1
I0220 17:37:44.548024 23779 net.cpp:425] conv1 <- data
I0220 17:37:44.548029 23779 net.cpp:399] conv1 -> conv1
I0220 17:37:44.549289 23779 net.cpp:141] Setting up conv1
I0220 17:37:44.549304 23779 net.cpp:148] Top shape: 13 96 2044 23 (58670976)
I0220 17:37:44.549329 23779 net.cpp:156] Memory required for data: 237346460
I0220 17:37:44.549345 23779 layer_factory.hpp:77] Creating layer relu1
I0220 17:37:44.549357 23779 net.cpp:91] Creating Layer relu1
I0220 17:37:44.549362 23779 net.cpp:425] relu1 <- conv1
I0220 17:37:44.549371 23779 net.cpp:386] relu1 -> conv1 (in-place)
I0220 17:37:44.549589 23779 net.cpp:141] Setting up relu1
I0220 17:37:44.549602 23779 net.cpp:148] Top shape: 13 96 2044 23 (58670976)
I0220 17:37:44.549607 23779 net.cpp:156] Memory required for data: 472030364
I0220 17:37:44.549612 23779 layer_factory.hpp:77] Creating layer pool1
I0220 17:37:44.549623 23779 net.cpp:91] Creating Layer pool1
I0220 17:37:44.549628 23779 net.cpp:425] pool1 <- conv1
I0220 17:37:44.549635 23779 net.cpp:399] pool1 -> pool1
I0220 17:37:44.549679 23779 net.cpp:141] Setting up pool1
I0220 17:37:44.549687 23779 net.cpp:148] Top shape: 13 96 1023 13 (16597152)
I0220 17:37:44.549692 23779 net.cpp:156] Memory required for data: 538418972
I0220 17:37:44.549700 23779 layer_factory.hpp:77] Creating layer conv2
I0220 17:37:44.549715 23779 net.cpp:91] Creating Layer conv2
I0220 17:37:44.549721 23779 net.cpp:425] conv2 <- pool1
I0220 17:37:44.549729 23779 net.cpp:399] conv2 -> conv2
I0220 17:37:44.557135 23779 net.cpp:141] Setting up conv2
I0220 17:37:44.557160 23779 net.cpp:148] Top shape: 13 192 1019 11 (27977664)
I0220 17:37:44.557166 23779 net.cpp:156] Memory required for data: 650329628
I0220 17:37:44.557179 23779 layer_factory.hpp:77] Creating layer relu2
I0220 17:37:44.557191 23779 net.cpp:91] Creating Layer relu2
I0220 17:37:44.557199 23779 net.cpp:425] relu2 <- conv2
I0220 17:37:44.557209 23779 net.cpp:386] relu2 -> conv2 (in-place)
I0220 17:37:44.557343 23779 net.cpp:141] Setting up relu2
I0220 17:37:44.557353 23779 net.cpp:148] Top shape: 13 192 1019 11 (27977664)
I0220 17:37:44.557358 23779 net.cpp:156] Memory required for data: 762240284
I0220 17:37:44.557363 23779 layer_factory.hpp:77] Creating layer pool2
I0220 17:37:44.557374 23779 net.cpp:91] Creating Layer pool2
I0220 17:37:44.557379 23779 net.cpp:425] pool2 <- conv2
I0220 17:37:44.557386 23779 net.cpp:399] pool2 -> pool2
I0220 17:37:44.557428 23779 net.cpp:141] Setting up pool2
I0220 17:37:44.557437 23779 net.cpp:148] Top shape: 13 192 511 7 (8928192)
I0220 17:37:44.557442 23779 net.cpp:156] Memory required for data: 797953052
I0220 17:37:44.557447 23779 layer_factory.hpp:77] Creating layer conv3
I0220 17:37:44.557463 23779 net.cpp:91] Creating Layer conv3
I0220 17:37:44.557469 23779 net.cpp:425] conv3 <- pool2
I0220 17:37:44.557479 23779 net.cpp:399] conv3 -> conv3
I0220 17:37:44.583323 23779 net.cpp:141] Setting up conv3
I0220 17:37:44.583346 23779 net.cpp:148] Top shape: 13 384 507 5 (12654720)
I0220 17:37:44.583353 23779 net.cpp:156] Memory required for data: 848571932
I0220 17:37:44.583365 23779 layer_factory.hpp:77] Creating layer relu3
I0220 17:37:44.583376 23779 net.cpp:91] Creating Layer relu3
I0220 17:37:44.583384 23779 net.cpp:425] relu3 <- conv3
I0220 17:37:44.583391 23779 net.cpp:386] relu3 -> conv3 (in-place)
I0220 17:37:44.583606 23779 net.cpp:141] Setting up relu3
I0220 17:37:44.583617 23779 net.cpp:148] Top shape: 13 384 507 5 (12654720)
I0220 17:37:44.583623 23779 net.cpp:156] Memory required for data: 899190812
I0220 17:37:44.583629 23779 layer_factory.hpp:77] Creating layer conv4
I0220 17:37:44.583644 23779 net.cpp:91] Creating Layer conv4
I0220 17:37:44.583652 23779 net.cpp:425] conv4 <- conv3
I0220 17:37:44.583662 23779 net.cpp:399] conv4 -> conv4
I0220 17:37:44.634474 23779 net.cpp:141] Setting up conv4
I0220 17:37:44.634503 23779 net.cpp:148] Top shape: 13 384 503 3 (7532928)
I0220 17:37:44.634510 23779 net.cpp:156] Memory required for data: 929322524
I0220 17:37:44.634521 23779 layer_factory.hpp:77] Creating layer relu4
I0220 17:37:44.634531 23779 net.cpp:91] Creating Layer relu4
I0220 17:37:44.634537 23779 net.cpp:425] relu4 <- conv4
I0220 17:37:44.634547 23779 net.cpp:386] relu4 -> conv4 (in-place)
I0220 17:37:44.634685 23779 net.cpp:141] Setting up relu4
I0220 17:37:44.634703 23779 net.cpp:148] Top shape: 13 384 503 3 (7532928)
I0220 17:37:44.634709 23779 net.cpp:156] Memory required for data: 959454236
I0220 17:37:44.634716 23779 layer_factory.hpp:77] Creating layer conv5
I0220 17:37:44.634732 23779 net.cpp:91] Creating Layer conv5
I0220 17:37:44.634738 23779 net.cpp:425] conv5 <- conv4
I0220 17:37:44.634747 23779 net.cpp:399] conv5 -> conv5
I0220 17:37:44.668831 23779 net.cpp:141] Setting up conv5
I0220 17:37:44.668851 23779 net.cpp:148] Top shape: 13 256 499 1 (1660672)
I0220 17:37:44.668856 23779 net.cpp:156] Memory required for data: 966096924
I0220 17:37:44.668872 23779 layer_factory.hpp:77] Creating layer relu5
I0220 17:37:44.668882 23779 net.cpp:91] Creating Layer relu5
I0220 17:37:44.668889 23779 net.cpp:425] relu5 <- conv5
I0220 17:37:44.668898 23779 net.cpp:386] relu5 -> conv5 (in-place)
I0220 17:37:44.669029 23779 net.cpp:141] Setting up relu5
I0220 17:37:44.669040 23779 net.cpp:148] Top shape: 13 256 499 1 (1660672)
I0220 17:37:44.669045 23779 net.cpp:156] Memory required for data: 972739612
I0220 17:37:44.669050 23779 layer_factory.hpp:77] Creating layer pool5
I0220 17:37:44.669060 23779 net.cpp:91] Creating Layer pool5
I0220 17:37:44.669066 23779 net.cpp:425] pool5 <- conv5
I0220 17:37:44.669073 23779 net.cpp:399] pool5 -> pool5
I0220 17:37:44.669116 23779 net.cpp:141] Setting up pool5
I0220 17:37:44.669124 23779 net.cpp:148] Top shape: 13 256 251 2 (1670656)
I0220 17:37:44.669129 23779 net.cpp:156] Memory required for data: 979422236
I0220 17:37:44.669134 23779 layer_factory.hpp:77] Creating layer fc6
I0220 17:37:44.669144 23779 net.cpp:91] Creating Layer fc6
I0220 17:37:44.669149 23779 net.cpp:425] fc6 <- pool5
I0220 17:37:44.669159 23779 net.cpp:399] fc6 -> fc6
I0220 17:37:46.145591 23779 net.cpp:141] Setting up fc6
I0220 17:37:46.145618 23779 net.cpp:148] Top shape: 13 512 (6656)
I0220 17:37:46.145624 23779 net.cpp:156] Memory required for data: 979448860
I0220 17:37:46.145635 23779 layer_factory.hpp:77] Creating layer relu6
I0220 17:37:46.145659 23779 net.cpp:91] Creating Layer relu6
I0220 17:37:46.145666 23779 net.cpp:425] relu6 <- fc6
I0220 17:37:46.145676 23779 net.cpp:386] relu6 -> fc6 (in-place)
I0220 17:37:46.145987 23779 net.cpp:141] Setting up relu6
I0220 17:37:46.145998 23779 net.cpp:148] Top shape: 13 512 (6656)
I0220 17:37:46.146004 23779 net.cpp:156] Memory required for data: 979475484
I0220 17:37:46.146010 23779 layer_factory.hpp:77] Creating layer drop6
I0220 17:37:46.146021 23779 net.cpp:91] Creating Layer drop6
I0220 17:37:46.146026 23779 net.cpp:425] drop6 <- fc6
I0220 17:37:46.146034 23779 net.cpp:386] drop6 -> fc6 (in-place)
I0220 17:37:46.146070 23779 net.cpp:141] Setting up drop6
I0220 17:37:46.146078 23779 net.cpp:148] Top shape: 13 512 (6656)
I0220 17:37:46.146085 23779 net.cpp:156] Memory required for data: 979502108
I0220 17:37:46.146090 23779 layer_factory.hpp:77] Creating layer fc7
I0220 17:37:46.146101 23779 net.cpp:91] Creating Layer fc7
I0220 17:37:46.146106 23779 net.cpp:425] fc7 <- fc6
I0220 17:37:46.146114 23779 net.cpp:399] fc7 -> fc7
I0220 17:37:46.152187 23779 net.cpp:141] Setting up fc7
I0220 17:37:46.152199 23779 net.cpp:148] Top shape: 13 512 (6656)
I0220 17:37:46.152204 23779 net.cpp:156] Memory required for data: 979528732
I0220 17:37:46.152223 23779 layer_factory.hpp:77] Creating layer relu7
I0220 17:37:46.152233 23779 net.cpp:91] Creating Layer relu7
I0220 17:37:46.152240 23779 net.cpp:425] relu7 <- fc7
I0220 17:37:46.152246 23779 net.cpp:386] relu7 -> fc7 (in-place)
I0220 17:37:46.152503 23779 net.cpp:141] Setting up relu7
I0220 17:37:46.152514 23779 net.cpp:148] Top shape: 13 512 (6656)
I0220 17:37:46.152519 23779 net.cpp:156] Memory required for data: 979555356
I0220 17:37:46.152525 23779 layer_factory.hpp:77] Creating layer drop7
I0220 17:37:46.152535 23779 net.cpp:91] Creating Layer drop7
I0220 17:37:46.152541 23779 net.cpp:425] drop7 <- fc7
I0220 17:37:46.152549 23779 net.cpp:386] drop7 -> fc7 (in-place)
I0220 17:37:46.152580 23779 net.cpp:141] Setting up drop7
I0220 17:37:46.152587 23779 net.cpp:148] Top shape: 13 512 (6656)
I0220 17:37:46.152626 23779 net.cpp:156] Memory required for data: 979581980
I0220 17:37:46.152631 23779 layer_factory.hpp:77] Creating layer fc8
I0220 17:37:46.152652 23779 net.cpp:91] Creating Layer fc8
I0220 17:37:46.152667 23779 net.cpp:425] fc8 <- fc7
I0220 17:37:46.152675 23779 net.cpp:399] fc8 -> fc8
I0220 17:37:46.153928 23779 net.cpp:141] Setting up fc8
I0220 17:37:46.153939 23779 net.cpp:148] Top shape: 13 101 (1313)
I0220 17:37:46.153944 23779 net.cpp:156] Memory required for data: 979587232
I0220 17:37:46.153954 23779 layer_factory.hpp:77] Creating layer fc8_fc8_0_split
I0220 17:37:46.153961 23779 net.cpp:91] Creating Layer fc8_fc8_0_split
I0220 17:37:46.153967 23779 net.cpp:425] fc8_fc8_0_split <- fc8
I0220 17:37:46.153975 23779 net.cpp:399] fc8_fc8_0_split -> fc8_fc8_0_split_0
I0220 17:37:46.153983 23779 net.cpp:399] fc8_fc8_0_split -> fc8_fc8_0_split_1
I0220 17:37:46.154021 23779 net.cpp:141] Setting up fc8_fc8_0_split
I0220 17:37:46.154028 23779 net.cpp:148] Top shape: 13 101 (1313)
I0220 17:37:46.154036 23779 net.cpp:148] Top shape: 13 101 (1313)
I0220 17:37:46.154041 23779 net.cpp:156] Memory required for data: 979597736
I0220 17:37:46.154045 23779 layer_factory.hpp:77] Creating layer accuracy
I0220 17:37:46.154068 23779 net.cpp:91] Creating Layer accuracy
I0220 17:37:46.154074 23779 net.cpp:425] accuracy <- fc8_fc8_0_split_0
I0220 17:37:46.154080 23779 net.cpp:425] accuracy <- label_data_1_split_0
I0220 17:37:46.154098 23779 net.cpp:399] accuracy -> accuracy
…
